…
[2026-04-17 01:31:08,244][root][INFO] - 	Evaluating on a time grid between [0.0, 1.0] with 1000 intervals
[2026-04-17 01:31:09,107][root][INFO] - Competing-risk with 2 grouped risks
[2026-04-17 01:31:09,110][root][INFO] - Using a DeSurv Competing-Risk head.
[2026-04-17 01:31:09,110][root][INFO] - 	With concurrent strategy=None for handling simultaneous events.
[2026-04-17 01:31:09,110][root][INFO] - 	Evaluating on a time grid between [0.0, 1.0] with 1000 intervals
FineTuneExperiment(
  (model): SurvStreamGPTForCausalModelling(
    (transformer): TTETransformer(
      (wpe): TemporalPositionalEncoding()
      (wte): DataEmbeddingLayer(
        (static_proj): Linear(in_features=27, out_features=384, bias=True)
        (dynamic_embedding_layer): SplitDynamicEmbeddingLayer(
          (cat_event_embed_layer): Embedding(108118, 384, padding_idx=0)
          (cat_event_proj): Linear(in_features=384, out_features=384, bias=True)
          (num_value_embed_layer): EmbeddingBag(108118, 384, mode='sum', padding_idx=0)
          (num_value_proj): Linear(in_features=384, out_features=384, bias=True)
        )
      )
      (drop): Dropout(p=0.1, inplace=False)
      (blocks): ModuleList(
        (0-5): 6 x Block(
          (ln_1): LayerNorm((384,), eps=1e-05, elementwise_affine=True)
          (attn): MultiHeadedSelfAttention(
            (attn_dropout): Dropout(p=0.1, inplace=False)
            (resid_dropout): Dropout(p=0.1, inplace=False)
            (k_proj): Linear(in_features=384, out_features=384, bias=False)
            (v_proj): Linear(in_features=384, out_features=384, bias=False)
            (q_proj): Linear(in_features=384, out_features=384, bias=False)
            (out_proj): Linear(in_features=384, out_features=384, bias=True)
          )
          (ln_2): LayerNorm((384,), eps=1e-05, elementwise_affine=True)
          (mlp): MLP(
            (c_fc): Linear(in_features=384, out_features=1536, bias=True)
            (acti): ReLU()
            (c_proj): Linear(in_features=1536, out_features=384, bias=True)
            (dropout): Dropout(p=0.1, inplace=False)
          )
        )
      )
      (ln_f): LayerNorm((384,), eps=1e-05, elementwise_affine=True)
    )
    (surv_layer): None
    (value_layer): None
  )
  (surv_layer): ODESurvCompetingRiskLayer(
    (sr_ode): ODESurvMultiple(
      (pinet): FCNet(
        (mapping): Sequential(
          (0): Linear(in_features=384, out_features=32, bias=True)
          (1): ReLU()
          (2): Linear(in_features=32, out_features=32, bias=True)
          (3): ReLU()
          (4): Linear(in_features=32, out_features=2, bias=True)
          (5): Softmax(dim=1)
        )
      )
      (odenet): CondODENet(
        (BaseNet): FCNet(
          (mapping): Sequential(
            (0): Linear(in_features=385, out_features=32, bias=True)
            (1): ReLU()
            (2): Linear(in_features=32, out_features=32, bias=True)
            (3): ReLU()
            (4): Linear(in_features=32, out_features=2, bias=True)
            (5): Softplus(beta=1, threshold=20)
          )
        )
      )
    )
  )
)
[2026-04-17 01:31:09,501][root][INFO] - Created Performance metric callback. Calculating metrics for dict_keys([94982, 90700, 83333, 82288, 79247, 79414, 81371, 76690, 65087, 61743, 65752, 59774, 58547, 66370, 57197, 69130, 47122, 47100, 33641, 33592, 33667, 24477, 3
…
